tests/constructor/checkpoints/base.pth (torch, 4033 bytes, 2 tensors)

layer.block1.conv.weight f4 [1, 1, 3, 3]
0	0xbcf6f980	-0.030148268
1	0xbe33e2d3	-0.17566995
2	0xbe019588	-0.12654698
3	0xbe0b3ea6	-0.13598117
4	0x3e45eeb6	0.19329342
5	0x3d73aad6	0.059489094
6	0xbcc65a40	-0.024212956
7	0x3e95ca6a	0.29255992
8	0x3c7082d6	0.014679631

layer.block2.conv.weight f4 [1, 1, 3, 3]
0	0x3ea78c5a	0.32724267
1	0xbe3a08c3	-0.18167405
2	0x3dcf8940	0.101336
3	0x3b470956	0.0030370555
4	0x3e59a45e	0.21254107
5	0x3e2c0c13	0.16801481
6	0xbe004906	-0.12527856
7	0xbe44732e	-0.19184563
8	0xbe847828	-0.25872922
