tests/constructor/checkpoints/layer.pth (torch, 3143 bytes, 2 tensors)

block1.conv.weight f4 [1, 1, 3, 3]
0.28242537 0.17707074 0.25208673 -0.30525237 0.10038459 -0.07830505 -0.26151976 -0.04733674
-0.31406605
00000000: 0f9a 903e 0852 353e 8311 813e 0a4a 9cbe
00000010: 7096 cd3d 665e a0bd ebe5 85be 2be4 41bd
00000020: 44cd a0be

block2.conv.weight f4 [1, 1, 3, 3]
0.16710131 0.13660805 -0.30363083 -0.019383233 0.040186923 0.17940752 0.16886806 -0.1229957
-0.08771181
00000000: 9b1c 2b3e fbe2 0b3e 8075 9bbe 96c9 9ebc
00000010: 0b9b 243d 9bb6 373e c0eb 2c3e 2be5 fbbd
00000020: 40a2 b3bd
