tests/constructor/checkpoints/layer.pth (torch, 3143 bytes, 2 tensors)

block1.conv.weight f4 [1, 1, 3, 3]
000000 4b 92 c0 bd 33 d4 7e be ab ca 5d 3b 56 24 4c 3d
       -0.09402903 -0.24885635 0.0033842723 0.04983934
000010 80 7a a8 3c 77 68 8a 3e be 0a 3f be 6a 8e a4 3e
       0.020566225 0.27032825 -0.18656442 0.32139903
000020 7e 7b 33 3e
       0.17527577

block2.conv.weight f4 [1, 1, 3, 3]
000000 a3 93 a4 3e 34 d7 9d be 88 4a 3c 3e 52 6a 83 be
       0.32143888 -0.3082825 0.18387806 -0.25667053
000010 d8 b6 13 3e c4 c1 87 be 06 33 a1 be 00 cd ac 3b
       0.14425218 -0.2651502 -0.3148424 0.0052734613
000020 a3 e3 30 be
       -0.17274337
