tests/base_tests/constructor/checkpoints/base.pth (torch, 4033 bytes, 2 tensors)

layer.block1.conv.weight f4 [1, 1, 3, 3]
0	0x3e8e3c57	0.2778041
1	0x3e9027d4	0.28155386
2	0x3dffe70b	0.1249524
3	0x3da5f49b	0.081032954
4	0xbe48ac20	-0.1959691
5	0x3cf1f416	0.029535335
6	0x3e2dc9c3	0.16971497
7	0x3c385880	0.011251569
8	0x3e18e6e0	0.14931822

layer.block2.conv.weight f4 [1, 1, 3, 3]
0	0xbdbea886	-0.09309487
1	0xbdfd31a6	-0.12362985
2	0x3d2d84b6	0.04236289
3	0x3ea98ebe	0.33116716
4	0x3e85e626	0.26152152
5	0xbd8f740b	-0.07004555
6	0x3e98328f	0.29726073
7	0x3e0e60ee	0.13904163
8	0x3cabbc2b	0.020963749
